save/a2c/LunarLander_ep17.pth (torch_old, 8274 bytes, 5 tensors)

affine.weight f4 [128, 8]
-0.2609684 -0.28906178 0.28107318 2.044857 -1.7756428 0.24648897 0.49745902 0.34593186
0.34796908 -0.73756456 0.15695761 0.051142897 -0.5755669 -0.023204667 -1.2808933 -1.0738239
-1.3372631 0.49988976 -0.5378848 1.3150433 0.8753987 0.5492761 -0.64135873 -0.8217067
-0.60755366 -0.22850333 0.08967629 0.10486652 0.124654904 0.89624393 0.024415858 -0.27965584
0.13298203 -0.50921845 0.18665935 0.39896286 -0.07913645 -0.20619304 -0.21755372 -0.8268291
-0.034049757 0.6002988 -0.28756115 -1.4554241 0.63150483 0.21428785 -0.51783776 -0.731116
0.34018487 -0.22887766 -0.12756307 0.20299584 -0.049432043 0.22406283 -0.576463 -0.07018508
-0.24804638 -0.1515408 -0.06452733 0.1951776 -0.019580152 0.102730945 -0.050845552 -0.15483607
-0.16855478 0.10635628 -0.012081582 -0.38133645 0.07505842 -1.241008 -0.16263233 0.019108938
0.081301175 -0.69933873 0.14796104 0.13755617 -0.17680122 -0.012937181 -0.34974608 -0.31694448
0.38084966 -0.19291343 0.7404444 0.12441126 -0.7536341 0.19457817 -0.85556334 0.1874052
-0.72878563 0.09147307 -0.17312776 0.6224639 0.82750565 -0.31169862 1.0741794 -0.43878666
-0.21208826 -1.0684959 0.23900102 -2.718223 -0.37456632 0.35087445 -0.06880514 -0.8395438
-0.18875977 0.010692676 -0.6947267 0.74172825 0.54110026 -0.27905688 -1.110754 -0.78596437
0.8812687 -0.445529 1.0969672 -1.237636 -0.9945307 -2.0025096 -0.15687826 0.31068262
-0.29029784 0.14961028 1.0756416 -0.55551964 1.3136026 0.26109704 -0.14438596 -0.59089494
-0.14765632 -0.22597758 0.014653693 -0.33039334 -0.14957279 -0.049701203 0.2684319 0.22981253
-0.041059174 0.05818294 0.7632471 1.1516608 -0.70511657 -1.3882675 -0.72043216 -0.6037479
-0.07610871 -0.34659517 0.1974678 0.5150572 -0.11647762 0.7333054 -0.6060266 -0.47050717
0.47721875 0.628724 -0.089606024 2.0117402 -0.5845177 -0.3825021 -0.16409753 -0.8065749
-0.06074874 -0.6448941 -0.087958716 -0.087537095 -0.052202124 0.02470681 -0.3066414 -0.069459
0.16142292 -0.3643802 -0.080445 0.19287479 -0.16931282 0.17385526 -0.42694217 0.008009493
-0.11081934 -0.6623275 -0.12935463 -0.29019722 0.15336734 0.24308102 -0.09901015 -0.26813734
-0.6254385 -0.44165686 -0.34235966 -1.8164964 -1.0227722 0.37269607 -0.22733976 -0.9240744
0.52562153 0.5782772 0.078921154 0.6501833 0.117089726 0.2557892 -0.7533432 -0.80305713
0.08344942 -0.05723874 0.55193526 0.037110656 0.23288798 0.10463384 -0.41286683 0.12171725
-0.31088597 0.19756423 0.22242996 -0.97290677 -1.6206319 -0.18152201 0.033639178 -0.7701914
0.02383453 -0.47810537 0.02167902 0.15674233 -0.145551 0.11787777 -0.23154739 -0.3387154
0.03081768 0.026178248 -0.9327171 -0.06103276 -1.5945016 0.68368834 0.024597332 -0.11757598
-0.003563724 -0.54474485 -0.25060156 -0.23097825 0.22015634 0.15499495 0.16431397 -0.2140816
-0.2801715 -0.58643425 -0.63237286 1.4462875 -0.684312 0.24465121 -1.3666537 0.39625546
-0.28289792 -0.086351484 0.13572809 -0.018844081 0.63199127 -0.5868211 -0.3720606 -0.5280698
00000000: a69d 85be e8ff 93be d3e8 8f3e f0de 0240
00000010: 4348 e3bf 9b67 7c3e f3b2 fe3e fb1d b13e
00000020: 0129 b23e 08d1 3cbf 7fb9 203e 377b 513d
00000030: 5a58 13bf b717 bebc 50f4 a3bf 1073 89bf
00000040: 702b abbf 8df1 ff3e d1b2 09bf 5753 a83f
00000050: 211a 603f 5c9d 0c3f 1630 24bf 5f5b 52bf
00000060: a388 1bbf c7fc 69be 34a8 b73d 42c4 d63d
00000070: 124b ff3d 3e70 653f c403 c83c 0d2f 8fbe
00000080: 712c 083e 245c 02bf a123 3f3e dc44 cc3e
00000090: 4b12 a2bd 4524 53be 67c6 5ebe 12ab 53bf
000000a0: c277 0bbd 2fad 193f 373b 93be 564b babf
000000b0: 4daa 213f 466e 5b3e 0491 04bf 6b2a 3bbf
000000c0: b62c ae3e e85e 6abe e59f 02be 24de 4f3e
000000d0: 4179 4abd ba70 653e 1493 13bf 32bd 8fbd
000000e0: dfff 7dbe 832d 1bbe e826 84bd a3dc 473e
000000f0: 8e66 a0bc 9a64 d23d 6d43 50bd 598d 1ebe
00000100: a099 2cbe 52d1 d93d d4f1 45bc 883e c3be
00000110: 3bb8 993d 5ad9 9ebf 1789 26be 598a 9c3c
00000120: 3b81 a63d dd07 33bf 1983 173e 86db 0c3e
00000130: 610b 35be 78f6 53bc eb11 b3be 8c46 a2be
00000140: bafe c23e 198b 45be c48d 3d3f 55cb fe3d
00000150: 2aee 40bf 803f 473e 3306 5bbf 26e7 3f3e
00000160: b291 3abf 3c56 bb3d 6748 31be cb59 1f3f
00000170: 69d7 533f f696 9fbe b67e 893f a5a8 e0be
00000180: aa2d 59be 79c4 88bf afbc 743e 5ef7 2dc0
00000190: 28c7 bfbe d1a5 b33e b6e9 8cbd 58ec 56bf
000001a0: 3e4a 41be 5530 2f3c 9cd9 31bf e7e1 3d3f
000001b0: 8c85 0a3f 8be0 8ebe 302d 8ebf f634 49bf
000001c0: d39a 613f 611c e4be 6c69 8c3f db6a 9ebf
000001d0: 9099 7ebf 1e29 00c0 b2a4 20be cb11 9f3e
000001e0: eba1 94be 7033 193e a0ae 893f 8936 0ebf
000001f0: 2124 a83f 83ae 853e ead9 13be e444 17bf
00000200: 3833 17be ab66 67be 0b16 703c 5129 a9be
00000210: 9c29 19be 7d93 4bbd e86f 893e fa53 6b3e
00000220: aa2d 28bd 3c51 6e3d 2964 433f 9f69 933f
00000230: 8582 34bf c0b2 b1bf 3e6e 38bf 398f 1abf
00000240: e2de 9bbd ec74 b1be 0035 4a3e cada 033f
00000250: d28b eebd e7b9 3b3f 8f24 1bbf 51e6 f0be
00000260: 0456 f43e 0ef4 203f 5d83 b7bd 5ac0 0040
00000270: f4a2 15bf 51d7 c3be 2f09 28be b17b 4ebf
00000280: acd3 78bd c817 25bf b323 b4bd a646 b3bd
00000290: e5d1 55bd f065 ca3c 1a00 9dbe 8540 8ebd
000002a0: 0d4c 253e 0b90 babe 59c0 a4bd f880 453e
000002b0: 5760 2dbe 1d07 323e 2a98 dabe 403a 033c
000002c0: 40f5 e2bd 4c8e 29bf 8a75 04be bb94 94be
000002d0: 540c 1d3e 3bea 783e d5c5 cabd 4c49 89be
000002e0: bd1c 20bf d920 e2be c449 afbe f482 e8bf
000002f0: 33ea 82bf 05d2 be3e c1cb 68be 2490 6cbf
00000300: 228f 063f f909 143f 6aa1 a13d 6a72 263f
00000310: bdcc ef3d cdf6 823e 1adb 40bf 2795 4dbf
00000320: 88e7 aa3d 2b73 6abd a14b 0d3f 5801 183d
00000330: 307a 6e3e 444a d63d 4863 d3be e546 f93d
00000340: 722c 9fbe 474e 4a3e aec4 633e 6b10 79bf
00000350: de70 cfbf e8e0 39be 3cc9 093d 432b 45bf
00000360: a240 c33c 3aca f4be 3398 b13c 1081 203e
00000370: 520b 15be e669 f13d c21a 6dbe 1b6c adbe
00000380: 5c75 fc3c c473 d63c 8cc6 6ebf 7dfd 79bd
00000390: a118 ccbf 3306 2f3f 5880 c93c adcb f0bd
000003a0: 5e8d 69bb 6674 0bbf d94e 80be 9085 6cbe
000003b0: aa70 613e ffb6 1e3e ec41 283e 3538 5bbe
000003c0: a472 8fbe 8e20 16bf 30e3 21bf f31f b93f
000003d0: 122f 2fbf d985 7a3e 82ee aebf ffe1 ca3e
000003e0: ffd7 90be 0cd9 b0bd 4efc 0a3e e75e 9abc
000003f0: 2eca 213f e839 16bf ba7e bebe 952f 07bf

affine.bias f4 [128]
-0.2832231 -0.71220726 0.07788558 -0.6357448 -0.2447157 -0.71805525 -0.754223 -1.0477341
-0.46865234 -0.689751 -0.43325025 -0.51159126 -0.06213144 -0.47310826 -0.9820311 -0.74043566
-0.78551465 -0.07384134 -0.11747878 0.43727612 -0.2936495 -0.48741552 -0.56363297 -0.050450474
-0.6102377 -0.6842627 -0.3806688 -0.3770969 -0.8763503 -0.6033784 -0.5745925 -0.46668798
-0.4303596 -0.24045277 -0.5446503 -0.19043958 -0.42181456 -0.33199108 -0.60804206 -0.41826615
-0.85497713 -0.60543 -0.24898313 -0.063181564 -0.8400173 -0.15189314 -0.6643946 -0.623089
-0.68720484 -0.3201611 -0.6165737 -0.5643915 -0.54769796 -0.48976722 -0.2757023 -0.68162495
-0.69764495 -0.6493989 -0.62694764 -0.744174 -0.29921004 -1.0760254 -0.33992857 -0.89639926
0.09875943 -0.22484592 -0.7548521 -0.27867347 -0.4826706 -0.4947088 -0.660863 -0.30942154
-0.7433344 -0.73070776 -0.31661272 -0.52513015 -0.622117 0.028584413 -0.49226308 -0.29324114
-0.5170495 -0.48351225 -0.42276803 -0.7311565 -0.24105722 -0.6010507 -0.5412934 -0.5445041
0.46287668 -0.75892454 -0.3099431 -0.5251172 -0.58625513 -0.41114852 -0.5226733 0.11147715
-1.0106816 -0.7068559 -0.8768131 -0.566865 -0.15455462 -0.42533934 -0.74208045 -0.7681533
-0.1572836 0.07572053 -0.79274076 -0.7616751 -1.3362367 -0.60719174 -0.16366011 -0.61946964
-0.4771996 -0.74914 -0.7675099 -0.76593536 -0.41325304 -0.60992515 0.25143752 -0.3625525
-0.5950743 -0.59047055 1.1385294 -0.24776913 -0.11196224 -0.54146016 -0.86859995 -1.0537102
00000000: 9e02 91be 3753 36bf 7a82 9f3d 2cc0 22bf
00000010: c196 7abe 78d2 37bf c214 41bf 271c 86bf
00000020: 33f3 efbe 8693 30bf fad2 ddbe a5f7 02bf
00000030: 897d 7ebd 3f3b f2be 6466 7bbf 318d 3dbf
00000040: 7d17 49bf 213a 97bd b798 f0bd a8e2 df3e
00000050: 3a59 96be 878e f9be 404a 10bf 28a5 4ebd
00000060: 8a38 1cbf d72b 2fbf 05e7 c2be d812 c1be
00000070: 7e58 60bf 0277 1abf 7e18 13bf baf1 eebe
00000080: 1858 dcbe 4039 76be 346e 0bbf 9802 43be
00000090: 14f8 d7be bcfa a9be a5a8 1bbf fb26 d6be
000000a0: c8df 5abf 76fd 1abf 6ff5 7ebe 5665 81bd
000000b0: 600b 57bf e089 1bbe c415 2abf c382 1fbf
000000c0: a8ec 2fbf 28ec a3be c6d7 1dbf f67b 10bf
000000d0: ef35 0cbf c5c2 fabe da28 8dbe f97e 2ebf
000000e0: dc98 32bf 023f 26bf a47f 20bf 3082 3ebf
000000f0: 0f32 99be 33bb 89bf 1e0b aebe 6c7a 65bf
00000100: 6242 ca3d 023e 66be fd3d 41bf 4aae 8ebe
00000110: 9a20 f7be 794a fdbe 512e 29bf 806c 9ebe
00000120: 2a4b 3ebf aa0f 3bbf 101b a2be ee6e 06bf
00000130: 0f43 1fbf dc29 ea3c e809 fcbe b423 96be
00000140: 5b5d 04bf eb8e f7be 0d75 d8be 132d 3bbf
00000150: b4d7 76be 75de 19bf 3492 0abf 9f64 0bbf
00000160: 2cfe ec3e e148 42bf ddb0 9ebe 156e 06bf
00000170: d114 16bf 0f82 d2be ebcd 05bf 224e e43d
00000180: 045e 81bf 82f4 34bf d376 60bf 111e 11bf
00000190: 9143 1ebe 14c6 d9be fcf8 3dbf b2a5 44bf
000001a0: f40e 21be 5d13 9b3d 0ff1 4abf 24fd 42bf
000001b0: ce09 abbf eb70 1bbf 8496 27be 9095 1ebf
000001c0: 8253 f4be a4c7 3fbf 877b 44bf 5714 44bf
000001d0: e795 d3be 0e24 1cbf 6bbc 803e 7ba0 b9be
000001e0: ca56 18bf 1429 17bf 55bb 913f 31b7 7dbe
000001f0: 754c e5bd 229d 0abf 915c 5ebf fadf 86bf

action_layer.weight f4 [4, 128]
1.7288711 -0.08651256 0.120598674 -0.09685005 0.38860038 -1.2438235 0.07454983 -0.4134782
-1.0169432 -0.36960277 0.049648948 0.24655993 -2.0726364 -0.17756969 -0.15797211 -0.50766724
0.09595307 -1.0524343 -0.022602327 0.21093011 -0.13774021 -0.047656666 -0.30347696 -0.9383203
-0.59456784 0.123693414 -0.53199375 -0.102703705 -0.5866851 -0.08382465 1.6496718 -0.18442905
-0.2808453 -0.6651024 0.079734385 0.4199276 0.16376793 -0.47385836 -0.08765761 -0.2879575
0.050370723 -0.00852674 2.3592498 -1.3957121 -0.7843819 -0.6256938 0.063006595 0.35414955
-0.16386364 -0.24480829 0.13055538 -0.10345681 -0.17635082 -0.4055199 -0.09554547 0.19252405
-0.14918415 0.33090323 0.25340936 0.03182033 -0.31020477 -0.37178904 0.12430537 -0.13588084
-0.20717004 -0.10456187 0.05763922 -0.26725876 -0.6078768 1.5250874 -0.47500166 -0.2623829
-0.46527085 -0.06276962 -0.45572886 -0.62300617 -0.14815041 -1.0560749 -0.043036412 2.024697
0.31664893 -0.47565618 0.033682387 -0.5947667 0.07555586 -0.52920896 -0.2040185 0.09928332
-1.5839807 0.056552794 -0.271366 -0.5857881 0.015139779 -0.056460228 0.22900148 -0.02624667
-0.14077176 0.90014607 -0.77434766 -0.48455232 -0.8326315 2.56249 -0.07239316 0.040280312
-1.3929557 0.17468065 -0.06137348 -1.3043092 0.47527742 -0.22720732 0.6635131 0.20516334
-0.74875176 -0.7658329 -0.13178736 0.13288954 0.12564458 -0.14189622 0.44074398 0.0010610303
-0.92853886 -0.09600072 0.6310032 0.30154434 -0.6913292 -1.0984881 -0.047651786 0.45133173
0.88030875 1.2996635 -0.6714218 -0.075246654 0.19405562 -0.57406026 -0.14886993 0.55494124
-0.0048054163 -0.09766442 1.124738 0.037363343 -0.8702901 -0.20598541 -1.2072154 -0.33091384
0.086021066 1.1639507 0.19704267 0.8037643 0.096731186 -0.20245276 0.23307833 -0.5103161
0.6062 0.4692102 0.54681396 0.0066784658 -0.1411658 -0.015583398 -0.1953416 0.1617363
0.53386414 1.1868384 -0.17928253 0.12744789 -0.15575562 0.047248293 -0.11247297 0.50061375
0.084202945 0.34195128 -0.4390344 1.2988077 -0.0014605504 -1.8427999 -0.0061229793 -0.045645006
0.27449158 -0.033193585 -0.23292741 -0.23658596 0.4100737 0.7327646 0.056506667 -0.0011076643
0.23896894 0.71358407 1.017111 0.10670467 0.52528137 -0.3685051 0.1018166 -0.05144527
0.9099013 -0.42264956 0.12024028 0.5906789 -1.0478076 0.7806619 -0.08180931 -0.01109841
-0.4926705 -0.13135222 0.03632974 0.6381452 -0.43134817 0.5207702 0.11774421 -0.18918476
-0.16428709 0.64685696 0.18080392 0.9820287 0.28791144 0.7892293 0.35930488 0.23500724
1.2726109 -0.27165344 -0.08939567 0.729253 0.22079745 -0.05011016 -0.24371454 -0.08485621
0.30127057 -2.0047245 -0.33928022 0.002795804 1.1700157 -0.37094784 -0.14175929 0.7672527
-1.64076 -0.094435476 0.13872176 -0.4579138 -0.65013975 0.30578232 -0.7067965 0.24736542
0.6641637 -1.7426412 0.22570479 -0.160585 0.6236964 -0.13760121 0.7951313 0.13179709
0.72799957 0.22995096 0.5544499 -0.758256 0.535514 -0.2885271 0.5951372 -0.14106594
00000000: a64b dd3f 7f2d b1bd 70fc f63d 5259 c6bd
00000010: a1f6 c63e 9c35 9fbf 95ad 983d 6ab3 d3be
00000020: 322b 82bf 933c bdbe b25c 4b3d 357a 7c3e
00000030: 13a6 04c0 d4d4 35be 71c3 21be 7bf6 01bf
00000040: 0b83 c43d 2bb6 86bf 8428 b9bc 10fe 573e
00000050: c50b 0dbe a333 43bd 5561 9bbe c235 70bf
00000060: 9935 18bf f952 fd3d be30 08bf 5256 d2bd
00000070: ff30 16bf 42ac abbd 7228 d33f f8da 3cbe
00000080: f5ca 8fbe 2744 2abf c84b a33d c000 d73e
00000090: c8b2 273e 909d f2be d585 b3bd 2a6f 93be
000000a0: 8851 4e3d bdb3 0bbc f3fd 1640 b2a6 b2bf
000000b0: 41cd 48bf 782d 20bf 9a09 813d 1753 b53e
000000c0: dfcb 27be 06af 7abe 4fb0 053e 2ae1 d3bd
000000d0: 4f95 34be 4ea0 cfbe 58ad c3bd 0625 453e
000000e0: bbc3 18be 266c a93e dfbe 813e 0956 023d
000000f0: 29d3 9ebe 225b bebe d093 fe3d 5924 0bbe
00000100: 6224 54be 8924 d6bd 1a17 6c3d 24d6 88be
00000110: d09d 1bbf 1036 c33f 6b33 f3be 0d57 86be
00000120: fb37 eebe 5c8d 80bd 4b55 e9be 557d 1fbf
00000130: beb4 17be 762d 87bf f346 30bd a394 0140
00000140: cf1f a23e 3589 f3be 8bf6 093d a142 18bf
00000150: 08bd 9a3d 3d7a 07bf 3aea 50be 0e55 cb3d
00000160: e1bf cabf e7a3 673d 7cf0 8abe 35f6 15bf
00000170: d60c 783c d742 67bd 5d7f 6a3e 4203 d7bc
00000180: 7926 10be f96f 663f a63b 46bf 3e17 f8be
00000190: 5727 55bf d6ff 2340 dd42 94bd f8fc 243d
000001a0: 5f4c b2bf 7cdf 323e c262 7bbd 9bf3 a6bf
000001b0: 9057 f33e 09a9 68be ffdb 293f 5716 523e
000001c0: 32ae 3fbf a00d 44bf 44f3 06be 3214 083e
000001d0: f9a8 003e 3e4d 11be 32a9 e13e 4512 8b3a
000001e0: b9b4 6dbf 079c c4bd 6d89 213f 0564 9a3e
000001f0: f3fa 30bf 429b 8cbf 852e 43bd f414 e73e
00000200: ea5b 613f 605b a63f 4de2 2bbf eb1a 9abd
00000210: 84b6 463e 9df5 12bf 5c71 18be a110 0e3f
00000220: c176 9dbb 4904 c8bd 6af7 8f3f 4e0a 193d
00000230: 55cb 5ebf d7ed 52be 0986 9abf 8a6d a9be
00000240: d02b b03d 56fc 943f 8ec5 493e 7fc3 4d3f
00000250: 001b c63d c74f 4fbe 16ac 6e3e 13a4 02bf
00000260: ec2f 1b3f 523c f03e 00fc 0b3f 08d7 da3b
00000270: c48d 10be 8251 7fbc a107 48be 339e 253e
00000280: 52ab 083f 52ea 973f d795 37be b381 023e
00000290: 677e 1fbe 6d87 413d 3a58 e6bd 3928 003f
000002a0: 9872 ac3d 3d14 af3e 1ec9 e0be 553f a63f
000002b0: f06f bfba dee0 ebbf 46a3 c8bb 42f6 3abd
000002c0: 298a 8c3e fff5 07bd 8684 6ebe 9743 72be
000002d0: 2ef5 d13e 7696 3b3f 8973 673d 0c2f 91ba
000002e0: 46b4 743e 72ad 363f b130 823f fa87 da3d
000002f0: d778 063f b3ac bcbe 3985 d03d 47b8 52bd
00000300: 4bef 683f 8665 d8be 8940 f63d bb36 173f
00000310: 8f1e 86bf 75d9 473f a48b a7bd 1bd6 35bc
00000320: 4f3f fcbe 3281 06be 7ece 143d 7c5d 233f
00000330: abd9 dcbe 3251 053f e023 f13d a6b9 41be
00000340: e03a 28be 6b98 253f aa24 393e 3c66 7b3f
00000350: 2169 933e ee0a 4a3f cff6 b73e bda5 703e
00000360: eae4 a23f 2916 8bbe 1415 b7bd 53b0 3a3f
00000370: ba18 623e 5040 4dbd 4e90 79be 18c9 adbd
00000380: 2340 9a3e 684d 00c0 23b6 adbe cf39 373b
00000390: 13c3 953f e0ec bdbe 5929 11be ac6a 443f
000003a0: 6c04 d2bf 6367 c1bd 140d 0e3e ad73 eabe
000003b0: 8f6f 26bf 808f 9c3e 9ef0 34bf 5c4d 7d3e
000003c0: a206 2a3f de0e dfbf 281f 673e 6570 24be
000003d0: 91aa 1f3f 55e7 0cbe ba8d 4b3f d1f5 063e
000003e0: 2e5e 3a3f 4478 6b3e 6ef0 0d3f 111d 42bf
000003f0: 7217 093f d3b9 93be e95a 183f 9773 10be

action_layer.bias f4 [4]
0.14240249 -0.51900834 0.7250415 -0.25114626
00000000: f5d1 113e bbdd 04bf 529c 393f 3e96 80be

value_layer.weight f4 [1, 128]
0.3170503 -0.08166712 -0.26025236 -0.16783474 -0.02617501 0.37622932 -0.14777112 -0.038549718
0.014187176 0.38455316 -0.07396705 0.0949277 0.35856974 0.039305408 -0.49425432 0.25579447
-0.049998857 0.11780659 0.17519978 -0.41332638 0.069146544 0.043966558 0.15783514 0.1091549
-0.20992903 0.12774517 0.23686376 -0.0002697616 0.06351942 0.17981032 0.03502462 -0.011729956
-0.07807731 -0.19365242 -0.045738004 -0.34701818 -0.04904163 0.0114885 0.080670305 0.0186661
0.11888444 0.11026129 0.07795937 -0.08534816 -0.1922844 -0.21106791 -0.33756852 0.065469116
0.016682716 0.06447834 0.043672126 0.06136549 0.059726235 -0.23965992 -0.051824257 -0.21016023
-0.23584335 0.025859125 -0.17248648 -0.35908696 0.0017405014 0.22553082 0.010609677 0.21478064
0.32438183 -0.10670206 0.27122357 -0.0020785462 0.27951497 -0.05920449 0.14370641 -0.03531347
0.27818802 0.12345299 0.013319133 -0.04620401 0.019103844 0.17596088 0.1342841 0.12863828
0.07921925 0.3519454 -0.08977695 0.31390262 -0.0036856893 -0.021869363 0.13705263 0.11254159
-0.40005943 -0.0029241838 0.079213485 0.2335475 0.14337783 0.041658822 0.027250065 -0.20239587
-0.1527725 0.27637357 0.29921877 -0.11736834 -0.100398734 0.24633835 -0.049177993 -0.0213172
-0.0073524257 0.5326042 -0.27188006 0.6582356 0.16186179 0.14394943 0.21867363 0.0792451
-0.021764418 0.7304723 0.1779218 -0.038861234 -0.09391116 -0.12205901 0.38393214 0.11285878
-0.4589811 0.10837189 1.1329999 0.05252576 0.49429834 0.11451537 0.12025775 0.12795521
00000000: 6b54 a23e 1741 a7bd cc3f 85be dfdc 2bbe
00000010: f96c d6bc 21a1 c03e 5051 17be 4fe6 1dbd
00000020: 5471 683c 27e4 c43e 097c 97bd 7469 c23d
00000030: 7496 b73e b5fe 203d e70e fdbe 7ef7 823e
00000040: 9acb 4cbd 9544 f13d 9267 333e 849f d3be
00000050: b49c 8d3d 4716 343d 899f 213e 9b8c df3d
00000060: a3f7 56be a1cf 023e 6a8c 723e ca6e 8db9
00000070: 7816 823d 3220 383e fa75 0f3d 002f 40bc
00000080: ffe6 9fbd d24c 46be c657 3bbd 5eac b1be
00000090: e0df 48bd 433a 3c3c 7936 a53d a6e9 983c
000000a0: af79 f33d acd0 e13d 2aa9 9f3d 04cb aebd
000000b0: 34e6 44be 3022 58be c8d5 acbe ac14 863d
000000c0: 31aa 883c 380d 843d 8be1 323d 615a 7b3d
000000d0: 7fa3 743d 6969 75be ac45 54bd 3e34 57be
000000e0: eb80 71be 84d6 d33c 4ca0 30be 3fda b7be
000000f0: 8921 e43a 8df1 663e 36d4 2d3c 75ef 5b3e
00000100: 6015 a63e 9c86 dabd d1dd 8a3e 3838 08bb
00000110: 961c 8f3e 6880 72bd c627 133e dba4 10bd
00000120: a96e 8e3e ecd4 fc3d 7e38 5a3c 6a40 3dbd
00000130: aa7f 9c3c 172f 343e c581 093e c1b9 033e
00000140: b43d a23d 3032 b43e fadc b7bd d8b7 a03e
00000150: 9b8b 71bb 6127 b3bc 8657 0c3e 357c e63d
00000160: 97d4 ccbe aaa3 3fbb ae3a a23d 1327 6f3e
00000170: a3d1 123e 71a2 2a3d 873b df3c dd40 4fbe
00000180: 6570 1cbe d680 8d3e 3433 993e d05e f0bd
00000190: da9d cdbd 1f40 7c3e dd6e 49bd 69a1 aebc
000001a0: 9eec f0bb c058 083f dd33 8bbe 2182 283f
000001b0: 19bf 253e 7b67 133e fbeb 5f3e 414b a23d
000001c0: 4b4b b2bc 3c00 3b3f 2231 363e f52c 1fbd
000001d0: 7f54 c0bd 13fa f9bd c192 c43e 8122 e73d
000001e0: 92ff eabe 15f2 dd3d 2406 913f 4025 573d
000001f0: ac14 fd3e 0987 ea3d b249 f63d b106 033e
